autoencoder_COCO_data.pth (torch_old, 58983 bytes, 12 tensors)

encoder.conv1.weight f4 [6, 3, 5, 5]
0	0x3ccf2087	0.025284065
1	0xbda7ff9a	-0.08203049
2	0x3d97d907	0.074144416
3	0x3bc312b5	0.005953158
4	0x3d5c569c	0.053793535
5	0xbd43dab9	-0.047816012
6	0xbdefd15b	-0.11709853
7	0xbd8a72b1	-0.06760157
8	0xbc538e2a	-0.0129123125
9	0xbcd15839	-0.025554763
10	0x3d59896b	0.053109568
11	0x3d89650c	0.06708726
12	0xbd3a2adc	-0.04545103
13	0x3c8d9158	0.01728122
14	0x3d244e31	0.04011363
15	0x3d828e41	0.06374789
16	0xbde0f252	-0.10983719
17	0xbd1ac488	-0.037785083
18	0xbc6f0e4d	-0.014590812
19	0xbddb7089	-0.10714824
20	0xbdb04661	-0.08607174
21	0x3ca73559	0.02041118
22	0x3d781abc	0.06057237
23	0x3db6ce3c	0.08926055
24	0xbda23bb3	-0.07921543
25	0xbcc3e474	-0.023912646
26	0xbd8b6812	-0.06806959
27	0x3d93808e	0.07202254
28	0x3dcfda6a	0.10149081
29	0xbcef8f89	-0.029243248
30	0x3c1f9f09	0.009742507
31	0x3db473b2	0.0881113
32	0x3d851027	0.064972214
33	0x3c90c7d1	0.017673405
34	0x3d8f290a	0.069902495
35	0xbdf8f14e	-0.121554
36	0x3c9adeff	0.018905161
37	0xbde3324f	-0.1109358
38	0xbdfa6de3	-0.122279905
39	0x3cb01acf	0.021497158
40	0xbce8737c	-0.02837538
41	0xbdc1abd7	-0.09456604
42	0x3d59df8a	0.0531917
43	0x3dae3e87	0.0850802
44	0xbd290896	-0.041267954
45	0xbd6fa3ea	-0.05850593
46	0x3d22dd23	0.039761674
47	0xbce4d3cf	-0.02793303
48	0xbd57bb68	-0.05266896
49	0x3d246382	0.04013396
50	0xbc37ed6b	-0.011226038
51	0x3d2bd412	0.041950293
52	0x3c3c7f3d	0.011504945
53	0xbd2c634d	-0.042086888
54	0x3dfe98df	0.124315016
55	0x3df797eb	0.12089523
56	0xbd0e4b43	-0.034739744
57	0xbdcb36ac	-0.09922537
58	0xbd206390	-0.03915745
59	0xbdbca653	-0.09211411
60	0x3d4d7edf	0.05016982
61	0xbd903058	-0.07040471
62	0x3c0a08fe	0.0084249955
63	0xbd85a7a8	-0.065261185
64	0xbc7876d9	-0.015165054
65	0xbd22787b	-0.03966568
66	0x3c236954	0.009973843
67	0x3d476b3d	0.048686255
68	0x3d2aa315	0.041659433
69	0x3d22bc7f	0.039730545
70	0xbdb97371	-0.09055222
71	0xbd969f54	-0.07354608
72	0xbd95696d	-0.07295499
73	0x3c9e477d	0.019321198
74	0x3dce0917	0.100603275
75	0xbd22d781	-0.0397563
76	0xbc0eaef0	-0.008708701
77	0x3d19c381	0.037539963
78	0xbc270348	-0.010193653
79	0xbd74afd7	-0.059738006
80	0xbd7f1e8c	-0.06228499
81	0x3a8a3733	0.0010545015
82	0xbddef27e	-0.108860955
83	0xbb9b326e	-0.0047362363
84	0x3b2f0b6b	0.0026709686
85	0xbba22c24	-0.0049491096
86	0xbd6105d4	-0.0549372
87	0xb9af90f2	-0.00033486594
88	0xbd54ee69	-0.05198518
89	0x3d0d9174	0.034562543
90	0xbd469d85	-0.048490066
91	0x3ca22001	0.019790651
92	0xbc4802ff	-0.012207746
93	0xbde0b08c	-0.10971174
94	0xbbf32d53	-0.0074211746
95	0x3d7d6ae7	0.06186953
96	0x3c17df7e	0.009269593
97	0xbd59ccd0	-0.05317384
98	0xbd70bc12	-0.058773108
99	0xbd5a87e3	-0.053352248
100	0x3db0c0bd	0.08630512
101	0xbc016902	-0.007898571
102	0x3cf544d2	0.029940043
103	0xbc09c627	-0.00840906
104	0xbdbd72c3	-0.09250405
105	0x3d8a4f60	0.06753421
106	0x3d64243d	0.055698622
107	0xbd32f548	-0.04369095
108	0xbd3fbd62	-0.04681147
109	0x3d439044	0.047745004
110	0xbd203631	-0.03911418
111	0x3d253806	0.04033663
112	0x3c93d843	0.018047458
113	0x3d799c8f	0.06094032
114	0xbdd3da09	-0.10344321
115	0xbd7c44e3	-0.061589133
116	0xbc1c2576	-0.009530416
117	0x3d89f9dc	0.0673711
118	0xbdd5c23f	-0.1043744
119	0xbe00b677	-0.12569605
120	0xbd99aa33	-0.07503166
121	0xbd12c813	-0.035835337
122	0xbc9c4ed7	-0.019080563
123	0xbc8e0880	-0.017338037
124	0x3db90281	0.09033681
125	0x3dcd1bb4	0.100150496
126	0xbd95d8e8	-0.07316762
127	0xbae5bb86	-0.00175272
128	0x3ce3073f	0.027713416
129	0x3d805298	0.062657535
130	0xbc6d2ba6	-0.014475739
131	0x3d3b8bce	0.045787625
132	0xbd16a161	-0.036774997
133	0xbc49588a	-0.012289176
134	0x3dca5e04	0.09881213
135	0x3d9d9d3d	0.076960064
136	0xbdca1a55	-0.09868304
137	0x3b52c2a1	0.0032159465
138	0xbda69dd2	-0.081355706
139	0x3dc1e9c3	0.09468415
140	0x3d8749f3	0.066059016
141	0x3ddb5735	0.10709993
142	0x3d9b551b	0.07584592
143	0xbd8f23ad	-0.069892265
144	0xbd798996	-0.060922228
145	0xbdb8ab51	-0.09017051
146	0x3d8c324e	0.06845532
147	0x3a6c1599	0.0009005904
148	0xbc1daee2	-0.009624215
149	0x3d4a515a	0.04939399
150	0xbca438b0	-0.020046562
151	0x3db8f061	0.09030224
152	0xbc0a3f75	-0.008437981
153	0x3cf2bfef	0.029632537
154	0x3db7ff7e	0.08984278
155	0x3da89edd	0.08233426
156	0xbb0ed4c4	-0.0021794299
157	0xbd8ca748	-0.06867844
158	0x3b7f5a48	0.0038963724
159	0xbd744549	-0.059636388
160	0x3d407a48	0.046991616
161	0x3d85a51a	0.06525631
162	0x3bc2f9d2	0.005950191
163	0x3d12413e	0.03570675
164	0xbda9f1c6	-0.08298068
165	0xbd5a0e5f	-0.05323636
166	0x3d3d7f4f	0.04626399
167	0xbdd8a393	-0.10578074
168	0x3c9e3d59	0.019316362
169	0x3d6a248a	0.057163753
170	0xbd9a2cfc	-0.07528111
171	0x3d3a2d51	0.045453373
172	0xbdc79603	-0.09745409
173	0x3d72a0c8	0.059235364
174	0xbd60886f	-0.054817613
175	0x3c125faa	0.008933941
176	0xbd824a62	-0.06361844
177	0x3dcb6bf9	0.099327035
178	0x3b881f09	0.0041540903
179	0x3d52f1ab	0.051500004
180	0x3cb4cae4	0.022069402
181	0x3c83972b	0.016063293
182	0x3dc52899	0.09626884
183	0x3d27d9ea	0.040979303
184	0xbdb20e12	-0.0869409
185	0xbd842856	-0.06453006
186	0xbd50a344	-0.050936952
187	0x3dc28679	0.09498305
188	0xbd2af56e	-0.041737966
189	0xbd63b950	-0.05559665
190	0x3d82893e	0.06373833
191	0xbd4f9577	-0.05067965
192	0xbda636e7	-0.081159405
193	0x3dcbf657	0.09959095
194	0xbd8e13c1	-0.069373615
195	0x3bde3922	0.006781713
196	0xbd594a25	-0.053049225
197	0xbcefde1c	-0.029280715
198	0x3dbca7fd	0.09211729
199	0x3d853d39	0.06505818
200	0x3dce23d5	0.10065428
201	0xbdaf6d2a	-0.08565743
202	0x3dea0758	0.11427182
203	0xbd8e87b1	-0.06959475
204	0x3d3b6413	0.045749735
205	0xbd002dbe	-0.031293623
206	0x3db17dc4	0.08666566
207	0x3da1f29f	0.079076044
208	0x3dab30b6	0.083589
209	0xbc81638e	-0.015794542
210	0x3d9b22b5	0.07574979
211	0xbdb64197	-0.08899229
212	0x3dd5e1b3	0.10443439
213	0x3d72c08f	0.05926567
214	0xbd65ca8b	-0.056101363
215	0xbd6c52ef	-0.05769628
216	0xbd541ed5	-0.051787216
217	0xb935837b	-0.00017310485
218	0x3d347684	0.044058338
219	0xbd9b9d8a	-0.075984076
220	0x3dda60ae	0.106629714
221	0xbd93aac6	-0.07210307
222	0x3db5b16d	0.08871732
223	0x3d0b4b56	0.034007393
224	0xbd6c20a5	-0.05764832
225	0xbdca32db	-0.09872981
226	0x3d638f65	0.055556674
227	0x3ded4de2	0.115871206
228	0x3c9a26f6	0.018817406
229	0xbd3b2654	-0.04569085
230	0xbd9296ef	-0.071576945
231	0xbb04e22b	-0.0020276408
232	0x3d166850	0.036720574
233	0x3b90008a	0.0043945955
234	0xbd517f53	-0.051146816
235	0xbda1710b	-0.07882889
236	0x3d97211d	0.07379363
237	0xbca6a3a5	-0.020341704
238	0xbc9068a7	-0.017628027
239	0x3decb958	0.11558789
240	0x3e0958eb	0.13412826
241	0x3e102d3d	0.14079757
242	0x3dac40c3	0.0841079
243	0xbd9d635f	-0.07684969
244	0xbd1f9d6f	-0.0389685
245	0x3d54422d	0.051820923
246	0xbd22681c	-0.039650068
247	0x3ddb85e6	0.107188985
248	0xbcf5d511	-0.030008825
249	0x3dbb2d43	0.09139492
250	0xbd62f81c	-0.055412397
251	0x3d2f1084	0.04274036
252	0x3d25f479	0.04051635
253	0x3c8591e2	0.016304914
254	0xbd7642b3	-0.060122203
255	0xbd15fc2d	-0.036617447

encoder.conv1.bias f4 [6]
0	0xbdba510e	-0.09097491
1	0x3e0baa21	0.13639118
2	0x3e2464d4	0.16054088
3	0x3e08da3b	0.13364498
4	0xbe032511	-0.12807108
5	0x3c07d27e	0.008289931

encoder.conv2.weight f4 [12, 6, 5, 5]
0	0xbcc0aeff	-0.023520945
1	0xbd2b83b9	-0.041873667
2	0xb724863c	-9.806416e-06
3	0x3bd6b21d	0.0065519945
4	0x3c217620	0.009854823
5	0xbc70a423	-0.014687571
6	0xbd338c40	-0.043834925
7	0xbd2229a4	-0.039590493
8	0xbc22c346	-0.009934252
9	0xbd65b241	-0.0560782
10	0xbdf46d71	-0.11934937
11	0xbc5b0aea	-0.013369301
12	0x3d44b888	0.048027545
13	0xbccf558c	-0.025309347
14	0xbc565283	-0.013081196
15	0x3cbf578f	0.02335718
16	0x3d244754	0.040107086
17	0xbd1a9d2e	-0.037747554
18	0x3d8be8f0	0.06831539
19	0xbd67ad03	-0.05656148
20	0x3cacbb7d	0.021085495
21	0xbd9dd5c7	-0.077067904
22	0x3bba380d	0.0056829513
23	0xbc29f599	-0.010373496
24	0xbbf6e674	-0.0075347964
25	0x3a2021e2	0.00061085646
26	0x3c8417fd	0.01612472
27	0xbd8ddaca	-0.06926496
28	0xbd320960	-0.043465972
29	0x3cb4c84c	0.022068165
30	0xbd5b1deb	-0.05349533
31	0x3d0945bd	0.033513773
32	0x3da73036	0.081634924
33	0x3d4c9896	0.049950205
34	0x3dc9cb92	0.09853281
35	0x3cc1cb3f	0.023656486
36	0xbc2c2443	-0.010506692
37	0x3d961236	0.07327692
38	0x3d9aabca	0.075522974
39	0x3d1c6dfe	0.038190834
40	0x3d26010b	0.04052834
41	0x3d189127	0.037247803
42	0x3c275f3a	0.010215575
43	0xbd0567f8	-0.032569855
44	0x3cc80c3c	0.024419896
45	0x3d98e7b0	0.07466066
46	0x3d240140	0.040040255
47	0x3da5bfde	0.080932364
48	0x3db6f6a9	0.089337654
49	0x3d964434	0.073372275
50	0x3c20f275	0.009823431
51	0x3d6038c0	0.05474162
52	0xbd2cf322	-0.042224057
53	0xbbf5ca96	-0.0075009568
54	0x3cc8e678	0.024523959
55	0x3c0a6146	0.008446043
56	0x3d6f80c9	0.05847243
57	0x3d7745ce	0.060369305
58	0x3bcf3234	0.0063231234
59	0xbd37acb7	-0.044842448
60	0xbd25b949	-0.040459905
61	0x3d93a700	0.07209587
62	0x3d84d93d	0.064867474
63	0xbd9855b6	-0.07438223
64	0xbcc9acce	-0.024618533
65	0x3d3f78bd	0.046746004
66	0xbd0a0eb4	-0.03370543
67	0x3caed9d5	0.021344105
68	0x3cffc715	0.03122286
69	0xbd3aeb21	-0.045634393
70	0xbb9c7bbe	-0.0047754934
71	0xbb9face7	-0.0048729065
72	0xbcd5de6d	-0.026107037
73	0xbb9c864e	-0.0047767526
74	0xbded901d	-0.11599753
75	0xbd6b9565	-0.05751552
76	0xbd9a736b	-0.075415455
77	0x3d728bc7	0.059215333
78	0xbd3ea10a	-0.046540298
79	0x3d2473e7	0.040149596
80	0xbd9fd28f	-0.07803833
81	0xbdb2a580	-0.08722973
82	0x3ca8fe43	0.020629054
83	0xbd339273	-0.043840837
84	0x3ce675f3	0.028132414
85	0xbcb8fd1a	-0.022581626
86	0x3ce4a85e	0.027912315
87	0xbc42ffa2	-0.011901768
88	0xbd53b30e	-0.05168443
89	0xbd227e87	-0.039671447
90	0x3af4cc90	0.0018676687
91	0xbde10402	-0.109870926
92	0xbde07009	-0.10958869
93	0xbc7a64ec	-0.015282851
94	0xbe003e0f	-0.12523673
95	0xba608557	-0.0008564791
96	0x3cc44d9a	0.023962785
97	0x3cf001e7	0.029297782
98	0xbd17f33d	-0.037097204
99	0x3c54c92f	0.012987419
100	0x3daeb43d	0.085304715
101	0x3d44ad00	0.04801655
102	0x3d1279a2	0.03576053
103	0xbd200c8f	-0.039074477
104	0x3d8956bb	0.06705996
105	0xb9547719	-0.00020262263
106	0x3da26650	0.07929671
107	0x3d9c3b6f	0.076285236
108	0xbd49831d	-0.049197305
109	0x3d71d748	0.0590432
110	0x3dbe8fb1	0.09304751
111	0xbc718619	-0.014741444
112	0x3d973ac6	0.07384257
113	0xbd14c35c	-0.03631912
114	0xbd7c34c3	-0.061573755
115	0x3abb4c00	0.0014289618
116	0xbd2d6d00	-0.04234028
117	0x3cf3456a	0.029696185
118	0xbd999400	-0.07498932
119	0x3d2ee3a4	0.042697564
120	0x3ded994a	0.11601503
121	0xbd46db94	-0.04854925
122	0xbb2c3e8e	-0.0026282403
123	0xbd83af6d	-0.06429944
124	0xbdb94b2e	-0.090475425
125	0xbd8b864b	-0.06812724
126	0xbc339368	-0.010960437
127	0xbd69d636	-0.057089053
128	0x3d4f28f1	0.050576154
129	0x3d7635e0	0.060109973
130	0xbd145a7d	-0.03621911
131	0x3d8af36b	0.067847095
132	0xbd1c0c4f	-0.038097676
133	0x3d478ce7	0.04871836
134	0x3ddfcbdb	0.10927554
135	0xbd644ba0	-0.055736184
136	0x3d2441ea	0.040101923
137	0xbd21fe56	-0.039549194
138	0xbb04acf4	-0.002024469
139	0x3c65ff2d	0.014037889
140	0x3d741c4e	0.059597306
141	0x3b1c03ed	0.002380605
142	0xbd35ffad	-0.044433285
143	0x3d981acb	0.07426985
144	0x3c418fbf	0.011814057
145	0x3c92eb3c	0.017934434
146	0xbd1ea7bd	-0.038734186
147	0xbcd5b5d1	-0.026087673
148	0xbd98be8b	-0.07458218
149	0x3d89298d	0.06697378
150	0x3cf5ac7b	0.029989472
151	0x3d24764c	0.04015188
152	0xbd2e9cd8	-0.042630047
153	0x3d350782	0.044196613
154	0xbda3008a	-0.07959087
155	0x3d8bc7ca	0.06825216
156	0xbd295ffd	-0.041351307
157	0x3d460874	0.048347905
158	0xbbfcdcf7	-0.0077167707
159	0xbd35a1ba	-0.044343688
160	0x3cf559d4	0.02995006
161	0x3cc3ea2c	0.023915373
162	0x3bb827d8	0.005619984
163	0x3d7e8a35	0.062143523
164	0x3d7632e8	0.06010714
165	0xbcb1c5ce	-0.021700766
166	0x3c5a8be5	0.0133390175
167	0xbcaeaad1	-0.021321686
168	0xbcca5810	-0.024700195
169	0x3c99c678	0.018771395
170	0xbd2e521d	-0.042558778
171	0xbc3dd615	-0.011586686
172	0xbd7896be	-0.060690634
173	0x3c40c471	0.011765585
174	0x3c07258a	0.008248696
175	0xbc95ee46	-0.018302094
176	0xbd078482	-0.033085354
177	0x3d55da67	0.052210238
178	0xbd142be3	-0.036174666
179	0xbd5ec5d3	-0.05438788
180	0xbd359d63	-0.04433955
181	0x3d762cf3	0.06010146
182	0xbd13a5c5	-0.036046762
183	0x3da3432b	0.07971796
184	0x3ca91817	0.02064137
185	0x3d9512ef	0.07279002
186	0x3d7a4263	0.061098468
187	0xbd0574bd	-0.032582033
188	0x3bca9ea2	0.0061834613
189	0x3d8ecb2f	0.06972348
190	0xbcadba78	-0.02120708
191	0x3c5c2074	0.013435472
192	0x3b963f31	0.0045851697
193	0x3da2f796	0.079573795
194	0x3db8cd32	0.09023513
195	0x3af36369	0.0018569055
196	0x3d96fefa	0.07372852
197	0x3d9ac5f9	0.075572915
198	0x3cf26a6a	0.029591758
199	0x3c91e048	0.017807141
200	0xbd1c65c1	-0.038182978
201	0xbd49b443	-0.049244177
202	0x3c718757	0.01474174
203	0xbca1d3f9	-0.019754397
204	0x3d1f6c3c	0.03892158
205	0xbdb747ce	-0.089492425
206	0x3d17a469	0.037022028
207	0x3ccc6622	0.024951044
208	0x3cc5b1e9	0.024132686
209	0xbd770139	-0.0603039
210	0x3c6ee406	0.014580732
211	0x3d53533b	0.051593047
212	0x3b865bee	0.0041003143
213	0xbd7dd6c7	-0.061972406
214	0xbd496a39	-0.049173567
215	0x3cf26ce1	0.029592933
216	0xbcec7894	-0.02886609
217	0x3b9aca70	0.0047238395
218	0xbd539e51	-0.051664654
219	0x3d45bfc1	0.048278574
220	0xbd9763dc	-0.073920935
221	0xbd35df89	-0.044402633
222	0xbcbed558	-0.02329509
223	0xbbd359a2	-0.006449894
224	0xbd486026	-0.04891982
225	0x3d2a5943	0.041589033
226	0xba330b33	-0.0006829977
227	0x3d6117e7	0.054954436
228	0xbd7b9095	-0.06141718
229	0x3b259a7b	0.002526908
230	0xbd8ff51c	-0.07029173
231	0x3bf36e85	0.0074289464
232	0x3caf1c30	0.021375746
233	0xbd05af84	-0.032638088
234	0x3ccd87c7	0.025089158
235	0x3d0faccc	0.0350769
236	0xbda03c1b	-0.07823964
237	0xbd3e8f08	-0.046523124
238	0x3cf68e25	0.030097077
239	0x3d78fcc8	0.060787946
240	0xbd6f5230	-0.05842799
241	0xbd84fdd9	-0.0649373
242	0xbcc8742d	-0.02446946
243	0xbd950a1b	-0.07277318
244	0xbd6cc62e	-0.057806186
245	0xbde3ef4e	-0.11129628
246	0xbb2fdf9c	-0.0026836162
247	0xbb9aa49e	-0.004719331
248	0x3c4f1b08	0.012640722
249	0xbd141661	-0.036154155
250	0xbd571bf8	-0.052516907
251	0xbd96627e	-0.07343005
252	0xbd5b16eb	-0.053488653
253	0x3d74b09e	0.059738748
254	0xbd72dbaa	-0.05929152
255	0xba9f71e0	-0.0012164675

encoder.conv2.bias f4 [12]
0	0xbd748c44	-0.05970408
1	0xbcae215d	-0.021256143
2	0xbce30bb6	-0.027715545
3	0xba391bd9	-0.00070613396
4	0xbdbe428d	-0.09290037
5	0xbdbf84fb	-0.09351536
6	0x3cd21a26	0.025647234
7	0x3c0653b5	0.008198668
8	0x3d4a669b	0.04941426
9	0x3da34c5f	0.07973551
10	0x3df79d12	0.12090506
11	0x3c165889	0.009176382

encoder.conv3.weight f4 [16, 12, 5, 5]
0	0xbcd9b41b	-0.026575139
1	0xb8c71810	-9.4935414e-05
2	0x3d3abbe7	0.045589354
3	0x3d47c359	0.048770282
4	0x3ac62769	0.0015117946
5	0xbc927dcd	-0.017882252
6	0x3c8aaf39	0.016929256
7	0x3d86b886	0.06578164
8	0xbc75883c	-0.014986094
9	0x3cfcc4a1	0.030855479
10	0xbd27fd5f	-0.041013118
11	0xbd25f32f	-0.04051512
12	0xbc665054	-0.014057238
13	0xbc8815e9	-0.01661201
14	0xbdd459ff	-0.10368728
15	0x3d131871	0.03591198
16	0xbd13b730	-0.036063373
17	0xbd706df2	-0.058698602
18	0xbd869c69	-0.065728016
19	0xbd762b6e	-0.06010001
20	0x3cc3b5de	0.023890432
21	0xbc961dfc	-0.018324845
22	0xbd59e8ed	-0.05320065
23	0xbb0091f7	-0.0019618252
24	0xbd957355	-0.072973885
25	0x3d4c33bd	0.04985403
26	0x3d392eb2	0.045210548
27	0x3bb5166e	0.0055263555
28	0xbc5e89d0	-0.013582662
29	0xbdab0024	-0.08349636
30	0x3bcae459	0.006191772
31	0xbc58194e	-0.013189627
32	0x3d8c1bf9	0.06841273
33	0x3d283134	0.04106255
34	0xbd498eba	-0.04920838
35	0xbd0ca3e8	-0.034336
36	0x3caf7979	0.021420227
37	0xbc5b2121	-0.013374598
38	0x3c97333a	0.018457044
39	0xbd42c606	-0.04755213
40	0x3c60d5ad	0.013722819
41	0x3ceb2b5e	0.028707203
42	0xbd80cc02	-0.062889114
43	0xbd82b65a	-0.06382437
44	0xbd2dad7c	-0.042401776
45	0xbd1d5487	-0.03841069
46	0xbcdf50ed	-0.027260268
47	0x3c251d9f	0.010077863
48	0xbd63f3b7	-0.055652346
49	0xbdad1819	-0.08451862
50	0x3cb6ae20	0.022299826
51	0x3d9f5ca8	0.07781345
52	0x3d1b905b	0.037979465
53	0x3c480da9	0.012210288
54	0xbcf19b79	-0.02949308
55	0x3cb9a859	0.022663282
56	0x3d33b41f	0.04387295
57	0x3d41b540	0.047291994
58	0x3da1e39d	0.07904742
59	0xbd82e22f	-0.06390797
60	0x3d476528	0.048680454
61	0x3c0c15ef	0.008550151
62	0x3cfca88f	0.030842094
63	0xbc88acbe	-0.016683932
64	0xbd9e06d9	-0.0771615
65	0xbd16cc86	-0.036816142
66	0x3d258969	0.040414248
67	0x3d33c1d7	0.043886032
68	0xbcfd96f2	-0.030955765
69	0xbde8bc91	-0.11364091
70	0xbd7dc863	-0.06195868
71	0x3bd61c54	0.0065341387
72	0x3ce08c5e	0.027410682
73	0x3cd9acc6	0.026571643
74	0xbccce69c	-0.025012307
75	0xbc8c67da	-0.017139364
76	0xbc5e0346	-0.013550585
77	0x3c02d0e0	0.00798437
78	0x3e034409	0.12818922
79	0x3e13f809	0.14450087
80	0xbcc46b65	-0.023976991
81	0x3c223c10	0.009902015
82	0xbbe67838	-0.007033374
83	0x3da846e9	0.0821665
84	0x3da923ab	0.08258756
85	0x3c57fba3	0.013182553
86	0xbda6d318	-0.08145732
87	0xbca02fb8	-0.019554004
88	0x3d9c6a99	0.076375194
89	0x3d24adb7	0.04020473
90	0x3c66cdaf	0.014087125
91	0xbd1e8b0d	-0.038706828
92	0x3d26a747	0.04068687
93	0x3dcf125b	0.10110923
94	0x3e17dccf	0.14830326
95	0xbc025537	-0.007954887
96	0xbb133477	-0.0022461691
97	0x3dba02ce	0.09082566
98	0x3dac4ac4	0.08412698
99	0x3e06965c	0.13143295
100	0x3caa4e4f	0.020789294
101	0xbc7a0467	-0.015259839
102	0xbcb816a1	-0.022471728
103	0xbc7712c1	-0.015080155
104	0xbdb4855c	-0.08814499
105	0x3d86f0fc	0.06588933
106	0x3d986ac1	0.07442237
107	0x3d12d7e9	0.03585044
108	0xbc53dc92	-0.012931006
109	0xbd7a1664	-0.06105651
110	0x3ba54db7	0.0050446647
111	0x3da70276	0.08154766
112	0x3d816ae8	0.06319219
113	0x3af7bb13	0.0018900357
114	0x3bee82c6	0.007278773
115	0xbc9a88b6	-0.018864017
116	0x3d31bcba	0.043392874
117	0x3ce2151d	0.027597958
118	0xbddc0ca9	-0.10744602
119	0xbd30060b	-0.042974513
120	0xbce7b895	-0.028286258
121	0x3c5c8013	0.01345827
122	0x3ca1acc8	0.019735709
123	0xbda93dc6	-0.082637355
124	0xbde4cc33	-0.111717604
125	0x3cc9d08a	0.024635572
126	0x3cdce89b	0.026966384
127	0x3ce52428	0.027971342
128	0xbcd595c7	-0.026072396
129	0xbcdf29ce	-0.027241614
130	0x3d0c2b2d	0.034220863
131	0x3d549a23	0.05190481
132	0x3d8aa137	0.067690305
133	0x3d8ffe9d	0.070309855
134	0xbca78f8f	-0.020454196
135	0x3b6a7f22	0.0035781343
136	0x3db94b18	0.09047526
137	0x3da4813a	0.080324605
138	0xbca0192a	-0.01954325
139	0xbbf39bc1	-0.007434339
140	0x3b0c8389	0.0021440706
141	0x3d8b0259	0.06787557
142	0xbcb517f9	-0.022106158
143	0xbca76af3	-0.02043674
144	0x3be2c7b3	0.0069207787
145	0xbb3ad2cf	-0.0028507
146	0x3b95946e	0.0045648133
147	0xbc834a22	-0.01602656
148	0xbd45b00a	-0.048263587
149	0xbdb2482a	-0.087051705
150	0x3baa7bd4	0.0052027497
151	0xbcd249ec	-0.025670014
152	0xbda3c07b	-0.07995697
153	0xbd4d672a	-0.050147213
154	0xbcfd96cf	-0.0309557
155	0xbd22b879	-0.039726708
156	0xbcbfe5ab	-0.023424944
157	0xbd28d342	-0.041217096
158	0xbdadad44	-0.084803134
159	0xbdaa73f5	-0.08322898
160	0xbd337a24	-0.043817654
161	0xbc4f1223	-0.0126386015
162	0xbcbfb0fc	-0.023399822
163	0xbdd3bb99	-0.10338516
164	0xbe0d01f1	-0.13770272
165	0xbd2f2155	-0.042756397
166	0xbd146390	-0.036227763
167	0xbda13346	-0.07871108
168	0xbdc8ff2d	-0.09814296
169	0xbde25ffc	-0.11053464
170	0x3c083fa6	0.008315956
171	0xbd0fe87e	-0.03513383
172	0xbd41d3b8	-0.04732105
173	0xbd86957f	-0.06571483
174	0xbe009e1a	-0.12560311
175	0x3cee29f9	0.029072748
176	0xbcc99699	-0.024607943
177	0x3d4c156f	0.04982513
178	0x3aaedc59	0.0013340815
179	0x3da013a9	0.0781625
180	0x3c2c43fc	0.010514256
181	0xbd01a08c	-0.03164725
182	0xbce59ea1	-0.028029742
183	0x3d898a7e	0.067158684
184	0xbaeac952	-0.0017912781
185	0xbd2210b5	-0.039566714
186	0xbd49853a	-0.04919932
187	0xbcfb992b	-0.030712685
188	0xbca3f067	-0.020012094
189	0xbcc4405c	-0.02395647
190	0x3d0f8f94	0.035049036
191	0x3c93f206	0.018059742
192	0xbc4c9eac	-0.012489002
193	0x3d0bbd4b	0.03411607
194	0xbc3844d5	-0.01124688
195	0x3cd6b86c	0.026210986
196	0x3cf61813	0.030040776
197	0xbcf059b5	-0.02933965
198	0xbc7c309b	-0.015392448
199	0x3d67b2d4	0.05656703
200	0xbd061895	-0.032738287
201	0x3c72b094	0.014812607
202	0xbc82b1a0	-0.015953839
203	0xbd313b9e	-0.043269746
204	0x3d3236ea	0.0435094
205	0xbd43ec01	-0.047832493
206	0x3ccaaf7d	0.024741882
207	0xbd528795	-0.051398832
208	0xbc9b6c03	-0.018972402
209	0x3d325b9f	0.043544408
210	0x3beee931	0.007290982
211	0x3bad1eb1	0.0052831997
212	0xbca8dc9d	-0.02061301
213	0xbcd701a2	-0.026245896
214	0x3cd9aa48	0.026570454
215	0xbd1a8d4b	-0.037732404
216	0x3bae884e	0.0053263074
217	0xbd715ed3	-0.058928322
218	0xbceeaf81	-0.029136421
219	0x3ca7d747	0.020488394
220	0x3c195ac5	0.00936002
221	0xbd39fd9e	-0.045407884
222	0x3cf34a42	0.029698495
223	0xbb7f090a	-0.00389153
224	0x3d4a67fa	0.049415566
225	0xbda9de34	-0.08294335
226	0xbd1c98af	-0.038231548
227	0x3d080b19	0.03321371
228	0x3b69c1f9	0.0035668595
229	0xbbb67d70	-0.0055691525
230	0xbc90230f	-0.017594842
231	0xbd93455c	-0.071909636
232	0x3cbf5287	0.023354782
233	0xbcbb1872	-0.022838805
234	0xbcefee42	-0.029288415
235	0x3b3916e3	0.0028242401
236	0xbddaa231	-0.10675467
237	0xbd8662b7	-0.06561797
238	0xbd8d3a51	-0.068958886
239	0xbc4efd40	-0.012633622
240	0xbdbcfeb2	-0.09228267
241	0xbcba918a	-0.022774477
242	0xbb8ad4ba	-0.0042367848
243	0xbda566f2	-0.08076276
244	0xbc57bf12	-0.013168113
245	0xbd9b95b2	-0.075969115
246	0xbcc60922	-0.024174277
247	0xbd0eda9c	-0.03487645
248	0x3cbf2e14	0.023337401
249	0x3d1369e6	0.035989664
250	0xbd9ed165	-0.077547826
251	0xbd656a26	-0.056009434
252	0x3cd6008c	0.026123308
253	0x3bb9be27	0.00566842
254	0xbde6d1da	-0.11270495
255	0xbd48a435	-0.048984725

encoder.conv3.bias f4 [16]
0	0xbd501cb6	-0.05080863
1	0x3d23370b	0.039847415
2	0x3cae7f38	0.021300897
3	0x3ce719bd	0.028210515
4	0x3d5f45ab	0.0545098
5	0xbcb9699f	-0.022633372
6	0xbd6a6924	-0.057229176
7	0xbd2bdd29	-0.04195896
8	0xbd96b0d5	-0.07357947
9	0xbd58e0ef	-0.05294889
10	0x3ce91ad6	0.02845518
11	0x3ca7309d	0.020408923
12	0x3d0f0c1e	0.034923665
13	0xbc799795	-0.015233894
14	0xbca2f04c	-0.019889973
15	0x3d7c3ca2	0.06158126

decoder.convT3.weight f4 [16, 12, 5, 5]
0	0xbdaa92b9	-0.083287664
1	0xbd53950c	-0.051655814
2	0xbcd3d175	-0.025856713
3	0xbddd57c6	-0.10807757
4	0x3d0d57f9	0.034507725
5	0xbc272483	-0.010201576
6	0xbdf42894	-0.11921802
7	0xbcb92bcc	-0.022603892
8	0xbd858ebd	-0.06521366
9	0xbd2fedb5	-0.042951304
10	0x3c318050	0.010833815
11	0xbe000f93	-0.12505941
12	0xbd487ea0	-0.048948884
13	0xbd383224	-0.044969693
14	0x3d51be74	0.05120702
15	0xbc6567d2	-0.0140018035
16	0xbd6753ca	-0.05647639
17	0xbd6f4e0c	-0.05842404
18	0xbd6f294d	-0.058388997
19	0x3d0e3346	0.034716867
20	0x3bf99009	0.0076160473
21	0x3aef9d7a	0.0018281185
22	0xbc6f2487	-0.014596111
23	0xbc957c98	-0.018247887
24	0x3d925b4a	0.07146318
25	0xbd4164ad	-0.047215153
26	0x3c6c27a4	0.014413748
27	0xbc81ff12	-0.015868697
28	0xbe0a4d14	-0.13505965
29	0xbe2515f7	-0.1612166
30	0xbd7077b1	-0.058707897
31	0xbd180be9	-0.037120733
32	0x3d479c02	0.048732765
33	0x3b6cdf43	0.0036143817
34	0xbd9b5c1a	-0.07585926
35	0xbd81c999	-0.0633728
36	0x3c6c2747	0.014413661
37	0x3d2b7acb	0.04186515
38	0x3c13a068	0.009010412
39	0xbca73d03	-0.020414835
40	0xbd4668d3	-0.048439812
41	0xbd12e0d0	-0.03585893
42	0x3bd5f716	0.006529699
43	0xbd4bae10	-0.049726546
44	0xbd7e7e90	-0.06213242
45	0xbdee326a	-0.116307095
46	0xbc80bef5	-0.015716055
47	0xbcb3ae93	-0.02193383
48	0xbcbb78c6	-0.022884738
49	0xbe2a1b61	-0.16612007
50	0xbce4a2e1	-0.027909698
51	0xbcfbec12	-0.030752216
52	0x3c4d9bd0	0.012549356
53	0xbd0f3e9e	-0.034971826
54	0x3c7f82bb	0.015595133
55	0xbcc746fb	-0.024325838
56	0x3d0fb333	0.035083007
57	0xbcd59c10	-0.026075393
58	0xbd832a80	-0.064045906
59	0x3d15715f	0.036485072
60	0xbbdb89d6	-0.006699781
61	0xbd3d64a7	-0.046238568
62	0xbce5ed51	-0.028067263
63	0x3c5944ad	0.0132610025
64	0x3d422f12	0.04740817
65	0x3d459afe	0.048243515
66	0xbd8f986d	-0.07011495
67	0x3d361258	0.044451088
68	0x3d5a72d4	0.053332165
69	0x3cfb30fb	0.030663004
70	0xbd1475e2	-0.036245234
71	0x3c9b799d	0.018978888
72	0x3d1e1e8e	0.038603358
73	0xbc787eff	-0.015166997
74	0x3d8c558a	0.06852253
75	0xbdcb3316	-0.09921853
76	0xbdd66f6b	-0.1047047
77	0xbc6ed140	-0.014576256
78	0xbd35ae60	-0.04435575
79	0xbdf15c3e	-0.11785172
80	0xbdf28fa7	-0.11843806
81	0xbd452373	-0.04812951
82	0xbda8ca7b	-0.08241745
83	0xbda8d4de	-0.08243726
84	0xbdaf1140	-0.08548212
85	0xbdbc8464	-0.09204939
86	0xbd916cbf	-0.0710082
87	0x3cbcf96d	0.023068154
88	0xbcb2cd15	-0.021826306
89	0xbcf13936	-0.029446226
90	0xbd94fb69	-0.07274515
91	0xbd7d8caf	-0.061901744
92	0x3c3cc18b	0.011520754
93	0xbd61ddbd	-0.055143107
94	0x3cc920da	0.024551798
95	0x3b535598	0.0032247063
96	0xbd2b7c3b	-0.041866522
97	0xbc2e9675	-0.010655989
98	0xbc6b1378	-0.014347903
99	0xbca5de34	-0.020247556
100	0xbc180c17	-0.009280226
101	0x3b1092be	0.0022060121
102	0xbd96ff06	-0.073728606
103	0x3cb9b882	0.022670988
104	0xbb97a305	-0.0046275877
105	0xbccbb913	-0.024868524
106	0x3c3499de	0.011023013
107	0x3caa8798	0.02081661
108	0xbd54dc40	-0.05196786
109	0xbc73aaeb	-0.014872293
110	0x3cab23f8	0.020891175
111	0x3d2673b5	0.04063769
112	0x3b134cd2	0.0022476208
113	0xbc04790b	-0.0080854995
114	0xbb31a353	-0.0027105405
115	0xbd263960	-0.04058206
116	0x3c6ae07e	0.01433575
117	0xbd455d69	-0.048184786
118	0x3cec5f24	0.02885396
119	0x3d2c390d	0.042046595
120	0x3d4901d2	0.049074
121	0x3d3b1bda	0.04568086
122	0xbd0041b8	-0.031312674
123	0xbd0b0290	-0.03393799
124	0x3db55994	0.08854976
125	0xbd9261e0	-0.071475744
126	0xba881610	-0.0010382552
127	0x3d8771fb	0.06613537
128	0xbccd65ca	-0.02507295
129	0xbe01df78	-0.12682903
130	0xbd18fef1	-0.037352506
131	0x3befd688	0.0073192753
132	0x3dfa2e86	0.12215905
133	0x3ca7ceab	0.02048429
134	0xbde8726e	-0.11349951
135	0xbc8eb83a	-0.01742183
136	0x3d9a73bf	0.07541608
137	0x3d0888c6	0.033333562
138	0xbd1b9686	-0.037985347
139	0xbdcaf350	-0.099096894
140	0xbd8502d2	-0.064946786
141	0xbc3f5339	-0.011677557
142	0x3d2424ba	0.040074088
143	0x3b1bd1b7	0.0023776123
144	0xbdb6ab3c	-0.08919379
145	0xbe072128	-0.13196242
146	0xbbce1d50	-0.0062901154
147	0xbd847b9c	-0.06468889
148	0xbde67cd5	-0.112542786
149	0xbe1fb1ba	-0.15595141
150	0xbd98d10e	-0.07461749
151	0xbd32b8d0	-0.043633282
152	0x3c2a70bd	0.010402855
153	0xbdfb947f	-0.12284183
154	0xbdf62cc2	-0.120202556
155	0xbdffbc52	-0.12487091
156	0xbb3b4b84	-0.0028578946
157	0x3db58d55	0.088648476
158	0xbdc906cc	-0.098157495
159	0xbdeeb719	-0.11656017
160	0xbdd134e2	-0.10215165
161	0x3cd7d4d1	0.026346596
162	0x3dc953ce	0.098304376
163	0xbd4438be	-0.047905676
164	0xbddd52da	-0.10806818
165	0xbe0d7293	-0.13813238
166	0xbdaa793d	-0.083239056
167	0xbd26e1af	-0.040742572
168	0xbdb1d0c7	-0.08682399
169	0xbe4343bb	-0.19068806
170	0xbe480dc6	-0.19536504
171	0xbdfb677c	-0.122755975
172	0xbda7381b	-0.08164998
173	0xbe061408	-0.13093579
174	0xbe2860b2	-0.16443136
175	0xbcd92959	-0.026508974
176	0xbc99c8c5	-0.018772492
177	0x3d205954	0.03914769
178	0xbbf1b79b	-0.007376624
179	0xbd1cce38	-0.038282603
180	0x3d00e707	0.031470325
181	0x3c8f721f	0.017510472
182	0xbc54a855	-0.012979587
183	0x3caeb661	0.0213272
184	0xbd822bd4	-0.06356016
185	0x3d67c51f	0.056584474
186	0x3ccf202e	0.0252839
187	0x3ce8a461	0.028398694
188	0xbcb42d8b	-0.021994373
189	0xbd2c4907	-0.04206183
190	0x3d33e32e	0.043917827
191	0xbd30cad0	-0.043162167
192	0xbc7a81d5	-0.015289743
193	0xbc81b281	-0.015832188
194	0xbd668eb7	-0.056288447
195	0xbcf4bdf7	-0.029875739
196	0x3d5b1cc9	0.05349425
197	0xbcafdd89	-0.02146794
198	0xbd710009	-0.058837924
199	0xbda9d2f9	-0.08292193
200	0x3d58b8eb	0.052910727
201	0x3df928ce	0.12165986
202	0x3de1da78	0.11027998
203	0x3d0c4d39	0.034253333
204	0x3d7c1815	0.061546404
205	0x3d3f8c8f	0.046764906
206	0x3d5e9c80	0.05434847
207	0x3da8ba43	0.082386516
208	0x3d5b3f6c	0.05352728
209	0x3c4ce498	0.012505673
210	0x3d659c22	0.056057103
211	0x3dae2979	0.08504004
212	0x3cc2029c	0.023682885
213	0x3d9f6922	0.07783724
214	0x3d86a33c	0.06574103
215	0x3d94e978	0.07271093
216	0x3d8ed8d6	0.06974952
217	0x3dcc2e87	0.09969812
218	0xbc0ee23b	-0.00872093
219	0x3d6f82d0	0.058474362
220	0x3cdf8bd0	0.027288347
221	0x3da500a2	0.08056761
222	0x3d0443eb	0.032291334
223	0xbcc45957	-0.023968382
224	0xbc449ae9	-0.011999824
225	0x3d1d1e34	0.038358882
226	0x3d060495	0.032719214
227	0x3c310b7a	0.010805959
228	0x3c2f6346	0.010704821
229	0xbbd0d275	-0.0063727447
230	0x3d52b354	0.051440552
231	0x3dff11de	0.1245458
232	0x3c4beec1	0.01244706
233	0x3df21f92	0.11822428
234	0x3d816eb6	0.063199446
235	0x3c3c155f	0.011479705
236	0x3dbcb9ef	0.092151515
237	0x3d77179c	0.06032525
238	0x3d12b31e	0.03581535
239	0x3c8da1d4	0.01728908
240	0xbc936803	-0.017993933
241	0x3cd8e098	0.026474282
242	0xbbd0a023	-0.006366746
243	0x3b9d2d36	0.0047966493
244	0x3d21f288	0.039537936
245	0x3c1bb379	0.009503239
246	0x3b9652f7	0.004587527
247	0xb99fa305	-0.00030448302
248	0xbcafbd12	-0.02145246
249	0x3c97253b	0.01845037
250	0x3d1465ae	0.03622978
251	0x3bb78ade	0.005601271
252	0x3c131c61	0.008978934
253	0x3da0738d	0.078345396
254	0x3deb5305	0.11490444
255	0xbc7193a4	-0.014744673

decoder.convT3.bias f4 [12]
0	0xbd3b7d6b	-0.045773905
1	0xbd41ae2e	-0.04728525
2	0x3cbfcf9a	0.023414422
3	0xbc7411fb	-0.014896865
4	0x3d063368	0.03276387
5	0xbc974340	-0.018464684
6	0xbd1c430f	-0.03814989
7	0xbd9ceaaa	-0.07661946
8	0xbbf22165	-0.007389235
9	0xbd209304	-0.039202705
10	0xbc715741	-0.014730276
11	0x3d2e0ea9	0.04249445

decoder.convT2.weight f4 [12, 6, 5, 5]
0	0xbe01ea0d	-0.1268694
1	0xbcf803c9	-0.030275242
2	0xbccac7a9	-0.024753409
3	0xbcbde51c	-0.023180537
4	0xbdc7fb3f	-0.09764718
5	0xbd1edba6	-0.03878369
6	0xbcaf3011	-0.021385225
7	0xbd505a33	-0.05086727
8	0xbcc3c8e1	-0.023899497
9	0xbdb97bac	-0.09056792
10	0xbd0eefde	-0.034896724
11	0xbd776f2e	-0.060408764
12	0xbd95a79c	-0.073073596
13	0xbbebeac2	-0.007199616
14	0xbca6d4d1	-0.02036515
15	0xbda9b8c5	-0.08287195
16	0xbd6bf939	-0.057610724
17	0xbd8e7e22	-0.06957652
18	0x3bdc4caf	0.0067230086
19	0xbdc10655	-0.09425036
20	0xbd460db0	-0.048352897
21	0xbd42bd27	-0.04754367
22	0xbdaa1173	-0.083041094
23	0xbc2975e7	-0.0103430515
24	0xbdf44b45	-0.11928419
25	0xbd84d224	-0.06485394
26	0xbb9ea38e	-0.0048412746
27	0xbcc5a8c1	-0.02412832
28	0xbd354b80	-0.044261456
29	0xbda816e7	-0.08207493
30	0xbd37626f	-0.044771608
31	0x3aba2dc9	0.0014204319
32	0xbc8cff20	-0.017211497
33	0x3c821dd8	0.015883371
34	0xbd514830	-0.051094234
35	0xbbaea1a3	-0.005329327
36	0xbd123c23	-0.035701882
37	0xbd544191	-0.05182034
38	0xbc9ec7d1	-0.01938239
39	0xbd70a704	-0.05875303
40	0x3c1dbca1	0.009627492
41	0x3d333bde	0.043758266
42	0xbb98f703	-0.004668118
43	0x3d1b983f	0.03798699
44	0xbcec9817	-0.028881116
45	0xbd886fc5	-0.06661943
46	0xbd165e02	-0.036710747
47	0xbd41269c	-0.04715596
48	0xbd06ecfb	-0.032940846
49	0xbde49d48	-0.111628115
50	0xbd7835f6	-0.060598336
51	0xbc519649	-0.012792178
52	0xbca47783	-0.020076519
53	0xbad67558	-0.0016361875
54	0xbc7ea500	-0.015542269
55	0xbcea4f49	-0.02860226
56	0x3acd59e0	0.0015667044
57	0x3bbb8631	0.005722784
58	0xbc2d48ca	-0.010576436
59	0xbc8f1e75	-0.017470578
60	0xbd74b5c9	-0.059743676
61	0xbce08c69	-0.027410703
62	0xbcf3d8c8	-0.029766455
63	0xbbdccdd9	-0.006738406
64	0xbc88b9b0	-0.016690105
65	0xbcdf53f7	-0.027261717
66	0x3d6b26e9	0.057410154
67	0x3d155f62	0.036467917
68	0x3d176291	0.036959235
69	0x3bc633b1	0.0060486426
70	0xbe2d5b6e	-0.16929409
71	0xbd45a8cf	-0.04825669
72	0xbd5cf94c	-0.053948686
73	0x3bb6007b	0.0055542565
74	0xbd99c744	-0.0750871
75	0xbe7ccb7f	-0.24687003
76	0xbe066fcb	-0.13128583
77	0xbddafb4e	-0.10692464
78	0xbdeae416	-0.11469285
79	0xbe2ae311	-0.16688181
80	0xbe25cea7	-0.16192113
81	0xbd6156dd	-0.05501448
82	0xbd554b7a	-0.052073933
83	0xbcc40435	-0.023927787
84	0xbe24c21f	-0.16089676
85	0xbe177fa3	-0.14794783
86	0xbdc61b52	-0.0967318
87	0xbdf1e8a0	-0.11811948
88	0xbd48784b	-0.048942845
89	0xbe126d28	-0.14299452
90	0xbe1a4f84	-0.15069395
91	0xbd9ce865	-0.07661513
92	0xbd881860	-0.06645274
93	0xbd4db945	-0.050225515
94	0xbdf7348b	-0.12070569
95	0xbe4b0b81	-0.19828607
96	0xbdb5868c	-0.088635534
97	0xbe0a2a99	-0.13492812
98	0xbdf08354	-0.11743799
99	0xbe1b83c0	-0.15186977
100	0x3d7d321c	0.061815366
101	0x3d86f4a0	0.06589627
102	0x3d164f9c	0.036697015
103	0xbbe0e4b1	-0.0068631996
104	0x3d3d60f0	0.046235025
105	0x3d1ca1e9	0.038240347
106	0x3cdfb1a7	0.02730639
107	0x3bf34c05	0.0074248337
108	0xbce06dee	-0.027396169
109	0x3a6178a9	0.00086010486
110	0xbc710b5d	-0.014712182
111	0x3d784d5d	0.060620654
112	0x3cb9c77c	0.02267813
113	0xbd575e5d	-0.052580226
114	0x3cb439d0	0.022000223
115	0x3c43638e	0.011925591
116	0x3d194620	0.037420392
117	0x3d350ff1	0.044204656
118	0x3ba9952d	0.005175254
119	0x3d87d606	0.066326186
120	0xbba7bb74	-0.0051187817
121	0xbce420fc	-0.02784776
122	0x3d8eb97e	0.069689736
123	0x3ca39727	0.019969536
124	0x3d9d329d	0.07675669
125	0x3e1020d0	0.14075017
126	0x3ccfeaf4	0.025380589
127	0x3da2750b	0.079324804
128	0xbc87f1e3	-0.016594833
129	0x3d9ad77f	0.07560634
130	0x3dc8eb2a	0.09810479
131	0xbcc7f590	-0.024409086
132	0xbd2c18a3	-0.042015683
133	0xbdca9c85	-0.09893135
134	0x3d11d895	0.03560694
135	0x3d9ab2f4	0.07553664
136	0xbbbc7e7d	-0.0057523833
137	0xbcb6b67e	-0.022303816
138	0xbd266ffb	-0.040634137
139	0x3d5dddc0	0.054166555
140	0x3d2e2e3c	0.04252456
141	0xbde49d02	-0.11162759
142	0xbd28bb62	-0.041194327
143	0xbd0e5b0e	-0.034754805
144	0xba9a542d	-0.0011774354
145	0x3dbc1061	0.091828115
146	0xbd77dda3	-0.060514104
147	0x3c1922bf	0.009346663
148	0x3c5d7301	0.013516189
149	0x3e0eba0a	0.13938156
150	0x3e18681e	0.14883468
151	0x3d4af3ff	0.0495491
152	0x3d952d10	0.072839856
153	0x3d2e1a1a	0.04250536
154	0x3db586b8	0.08863586
155	0x3cca425b	0.024689844
156	0x3c6ab699	0.014325761
157	0xbc82b57e	-0.015955683
158	0x3c05b527	0.008160866
159	0x3c1cb589	0.009564766
160	0xbccad227	-0.024758412
161	0xbbac04cf	-0.0052495967
162	0xbcca214f	-0.024674086
163	0xbc92d515	-0.017923871
164	0x3d87dce3	0.06633928
165	0x3da03774	0.07823077
166	0xbbf71f89	-0.007541601
167	0x3cb7ecbe	0.022451755
168	0xbc051be3	-0.0081243245
169	0x3dca9611	0.09891904
170	0x3d7a3994	0.061090067
171	0x3d300f28	0.042983204
172	0x3cad0e25	0.021124909
173	0x3b93e58d	0.0045134486
174	0x3ddd6741	0.1081071
175	0x3d1da0ef	0.038483556
176	0xbb9f123b	-0.004854468
177	0x3c950f35	0.018195728
178	0x3a902131	0.001099622
179	0xbc5c8204	-0.0134587325
180	0xbd0e708f	-0.034775313
181	0xbc0d5bcf	-0.008627846
182	0x3cb2eac6	0.021840464
183	0xbc93dbbe	-0.018049117
184	0x3d494b34	0.049143985
185	0x3d40b56d	0.04704802
186	0x3c770a98	0.015078209
187	0xbc3e1427	-0.011601484
188	0x3c5218ab	0.012823264
189	0x3d835806	0.064132735
190	0x3c54417a	0.012955064
191	0x3cc0b839	0.023525344
192	0xbd3d1f33	-0.046172332
193	0xba562c14	-0.00081700203
194	0x3ce300b8	0.027710304
195	0x3c1f9cb3	0.00974195
196	0x3d0ad47d	0.03389405
197	0x3c76e813	0.015069979
198	0x3d581802	0.05275727
199	0x3dff033a	0.12451787
200	0x3db99e38	0.09063381
201	0x3c84d3b5	0.016214231
202	0xbbd4785d	-0.006484075
203	0x3b1ac9a0	0.0023618713
204	0x3cdef504	0.027216442
205	0x3d0159ef	0.031579908
206	0xbd116c70	-0.035503805
207	0x3cf214fd	0.029551024
208	0x3d7fd8b3	0.06246252
209	0x3dc30ba2	0.09523703
210	0x3d6549a4	0.055978432
211	0x3d486210	0.048921645
212	0x3c398968	0.011324264
213	0xbbab847f	-0.0052343006
214	0x3d10c587	0.035344627
215	0x3d07ebfd	0.03318404
216	0xbcc7e7d1	-0.02440253
217	0x3c6967da	0.014245952
218	0x3d0e45e0	0.034734607
219	0xbc6554ef	-0.0139973005
220	0x3de22f30	0.110441566
221	0x3d04d80c	0.0324326
222	0x3c9a0dd3	0.01880542
223	0x3d99e301	0.07514001
224	0x3e0a0b74	0.13480932
225	0x3e0607ad	0.13088866
226	0x3d753db9	0.059873316
227	0x3cb916b6	0.022593837
228	0x3bddd250	0.006769456
229	0x3d6aef7f	0.057357308
230	0xbcb07f54	-0.02154509
231	0xbda97a7e	-0.08275317
232	0xbcfe42c6	-0.0310377
233	0xbca1cce4	-0.01975102
234	0x3d03f7ac	0.03221862
235	0xbd96af8a	-0.073577
236	0xbd7c68d8	-0.061623424
237	0xbd51ada9	-0.051191006
238	0xbd553d69	-0.05206052
239	0x3c2a8108	0.01040674
240	0x3de03c7f	0.10949039
241	0x3daeb728	0.08531028
242	0x3d4ca654	0.04996331
243	0x3c9042fd	0.017610068
244	0x3da3ba4f	0.0799452
245	0x3e54abb5	0.20768626
246	0x3d9408a6	0.07228212
247	0x3e06aef5	0.13152678
248	0x3e150d71	0.14555909
249	0x3e24e2c8	0.16102135
250	0xbdd65f5d	-0.10467408
251	0xbd909fa4	-0.07061699
252	0xbdb7a1ed	-0.08966432
253	0xbbb29901	-0.0054503684
254	0xbdbf5deb	-0.09344085
255	0xbd394a01	-0.04523659

decoder.convT2.bias f4 [6]
0	0x3da0e73d	0.07856605
1	0x3da80ab1	0.08205164
2	0x3d202f86	0.039107822
3	0xbbef1763	-0.007296489
4	0x3cb3547f	0.021890877
5	0xbdce900c	-0.100860685

decoder.convT1.weight f4 [6, 3, 5, 5]
0	0xbd6e6053	-0.05819733
1	0xbd8abcae	-0.06774269
2	0xbda1e705	-0.079053916
3	0xbdc1382c	-0.09434542
4	0xbda7bd44	-0.081903964
5	0xbd82fb1e	-0.06395553
6	0xbd88dff6	-0.06683342
7	0xbd9d1fda	-0.07672091
8	0xbdb3ba0c	-0.0877572
9	0xbdb81418	-0.089882076
10	0xbd3ddec6	-0.04635503
11	0xbd5d29d6	-0.053994976
12	0xbd6f37bd	-0.058402766
13	0xbd8dd478	-0.06925291
14	0xbd88388e	-0.06651412
15	0xbd1a6cc4	-0.037701383
16	0xbd4a1c6b	-0.049343508
17	0xbd5bfa03	-0.053705227
18	0xbd8822b7	-0.06647246
19	0xbd5d414f	-0.05401736
20	0xbcf0679f	-0.029346285
21	0xbd3408b4	-0.043953612
22	0xbd5cb6a0	-0.053885102
23	0xbd7db65b	-0.061941486
24	0xbd67d03a	-0.056595065
25	0xbd7d98f2	-0.06191344
26	0xbd972dd9	-0.073817916
27	0xbdb21672	-0.08695687
28	0xbdc7fa34	-0.09764519
29	0xbdaf6a59	-0.08565206
30	0xbd8b371a	-0.06797619
31	0xbd97dbec	-0.07414994
32	0xbd9bebd8	-0.07613343
33	0xbda9c112	-0.08288778
34	0xbda6cba7	-0.08144312
35	0xbd5fa931	-0.054604713
36	0xbd78e4c2	-0.060765035
37	0xbd61ed7f	-0.055158135
38	0xbd6bdac9	-0.057581697
39	0xbd6fac33	-0.05851383
40	0xbd21e5f6	-0.03952595
41	0xbd4a95dd	-0.049459327
42	0xbd50c954	-0.05097325
43	0xbd5ef7eb	-0.05443565
44	0xbd54f915	-0.051995356
45	0xbd0c28b2	-0.034218498
46	0xbd330667	-0.043707278
47	0xbd4c5df1	-0.049894277
48	0xbd7647de	-0.06012713
49	0xbd5f5757	-0.054526653
50	0xbd923498	-0.07138938
51	0xbdb1c691	-0.08680452
52	0xbdc2a3ea	-0.095039204
53	0xbdda28fa	-0.10652347
54	0xbdcb0092	-0.09912218
55	0xbda9e547	-0.08295684
56	0xbd8a07d5	-0.06739775
57	0xbd90b40a	-0.0706559
58	0xbdae36a2	-0.08506514
59	0xbd96d307	-0.07364469
60	0xbd77393c	-0.060357317
61	0xbd87afc2	-0.0662532
62	0xbd5da738	-0.05411455
63	0xbd190b41	-0.03736425
64	0xbd6abee5	-0.057310957
65	0xbd4d1461	-0.050068263
66	0xbd391ab5	-0.045191485
67	0xbd3207f8	-0.04346463
68	0xbd29c3bf	-0.041446444
69	0xbd2f6656	-0.042822205
70	0xbd0c8c06	-0.034313224
71	0xbd2fbb54	-0.04290326
72	0xbd4ebc70	-0.050472677
73	0xbd8626dc	-0.065503806
74	0xbd62c88b	-0.055367034
75	0xbd47669b	-0.048681837
76	0xbdb60213	-0.088871144
77	0xbdad255d	-0.08454392
78	0xbdb73bf6	-0.089469835
79	0xbd70b866	-0.058769606
80	0xbdbb9dfa	-0.09160991
81	0xbe1819a4	-0.14853531
82	0xbe1568ab	-0.14590709
83	0xbe101abe	-0.14072701
84	0xbdaad27c	-0.08340928
85	0xbde1a4cf	-0.11017763
86	0xbe1e8019	-0.15478553
87	0xbe0d3f8b	-0.13793771
88	0xbe266265	-0.16248472
89	0xbddb08fd	-0.10695074
90	0xbdf79e4c	-0.120907396
91	0xbe1ad530	-0.15120387
92	0xbe253107	-0.16131984
93	0xbe38592c	-0.18002766
94	0xbe15597e	-0.1458492
95	0xbd998fbf	-0.074981205
96	0xbdd9e796	-0.10639875
97	0xbde97981	-0.11400128
98	0xbe0e85c6	-0.13918218
99	0xbddba897	-0.10725515
100	0xbbcb1d29	-0.0061985445
101	0xbd073aba	-0.03301499
102	0xbd047e9c	-0.032347307
103	0xbd1be9fb	-0.038064938
104	0xbc84cff0	-0.016212434
105	0xbce87328	-0.028375223
106	0xbd86f979	-0.06590552
107	0xbd9e3547	-0.077250056
108	0xbda612a5	-0.08109025
109	0xbd104caf	-0.03522938
110	0xbd4c5288	-0.049883395
111	0xbd8c05bc	-0.06837031
112	0xbdbfca77	-0.09364789
113	0xbde8cdba	-0.11367364
114	0xbd9df968	-0.07713586
115	0xbd8ac334	-0.06775513
116	0xbdaea4c6	-0.08527522
117	0xbdcb63fe	-0.09931181
118	0xbe079b00	-0.13242722
119	0xbdd93cf3	-0.10607328
120	0xbd370aa3	-0.04468788
121	0xbd8207b0	-0.063491225
122	0xbd7604d5	-0.060063202
123	0xbdaa2416	-0.08307664
124	0xbd8e3644	-0.06943944
125	0x3d32bbd0	0.043636143
126	0x3d14e4b5	0.036350925
127	0x3cd120e4	0.025528379
128	0x3c8a7819	0.01690297
129	0x3d0bf2ae	0.034166984
130	0x3d37f550	0.044911683
131	0x3c77fcbe	0.015135942
132	0x3b66331c	0.0035125678
133	0xbc5eee82	-0.013606669
134	0x3c3e208a	0.011604438
135	0x3c2ba392	0.01047601
136	0x3c9ce5de	0.019152578
137	0xbc6de3c7	-0.014519638
138	0xbd6cab94	-0.057780817
139	0xbcc5c0ce	-0.024139788
140	0xbae48aec	-0.0017436421
141	0xbcce0200	-0.025147438
142	0xbd144d0b	-0.036206286
143	0xbd80fffe	-0.06298827
144	0xbd65e2f1	-0.05612463
145	0xbc2f004e	-0.010681225
146	0xbc6948ff	-0.014238595
147	0xbc27c23d	-0.010239181
148	0xbcfda00d	-0.030960107
149	0xbcd7ee4d	-0.026358748
150	0xbc278aef	-0.010225995
151	0x3c37f0d0	0.011226848
152	0x3cdae2bf	0.02671945
153	0x3cbf4839	0.023349868
154	0x3c1a71bb	0.0094265295
155	0xbcfb1acf	-0.030652432
156	0xbc4c1885	-0.012457018
157	0x3c0b9593	0.008519548
158	0x3b6b4c13	0.0035903498
159	0xbc02553b	-0.007954891
160	0xbd39caab	-0.045359295
161	0xbd16fbb5	-0.03686114
162	0xbc307a8b	-0.010771404
163	0xbba5dc48	-0.00506166
164	0xbc88521e	-0.016640719
165	0xbd57f3f1	-0.052722875
166	0xbd5d47e9	-0.054023657
167	0xbcc77c27	-0.024351193
168	0xbb94d179	-0.0045415726
169	0xbc080df4	-0.008304108
170	0xbd606f62	-0.054793723
171	0xbd7a7b24	-0.061152592
172	0xbd1e3a1a	-0.03862963
173	0xbc965a9a	-0.018353749
174	0xbc8f146f	-0.017465798
175	0xbd06bf3a	-0.03289721
176	0xbccc1345	-0.024911532
177	0x3a579aee	0.00082246854
178	0x3b123470	0.0022309087
179	0xbb52500a	-0.0032091164
180	0xbd72cd5d	-0.05927788
181	0xbd3c7e98	-0.046019167
182	0xbcc2af4d	-0.02376523
183	0xbcd997af	-0.026561586
184	0xbceb0c4e	-0.02869239
185	0xbd95470b	-0.07288941
186	0xbd9da9ab	-0.07698377
187	0xbd52783f	-0.051384207
188	0xbd28a192	-0.04116971
189	0xbd0ecaaf	-0.034861263
190	0xbda102e7	-0.07861882
191	0xbdab37ad	-0.08360229
192	0xbd88888f	-0.066666715
193	0xbd443eea	-0.047911562
194	0xbd1cb5f5	-0.038259465
195	0xbd8e5530	-0.06949842
196	0xbdad64ff	-0.08466529
197	0xbd802ae6	-0.06258182
198	0xbd35cf5e	-0.044387214
199	0xbd1705c9	-0.03687075
200	0xbd89dad1	-0.06731189
201	0xbd5d3893	-0.05400903
202	0xbd26502d	-0.040603805
203	0xbd201084	-0.03907825
204	0xbce2335a	-0.027612377
205	0xbdb86614	-0.09003845
206	0xbde64301	-0.11243249
207	0xbdb2092f	-0.08693158
208	0xbd97c43d	-0.07410476
209	0xbd69bbe2	-0.057063945
210	0xbde7422a	-0.11291917
211	0xbe083646	-0.13301954
212	0xbdd26f63	-0.102751516
213	0xbdd09409	-0.101844855
214	0xbd6bc01d	-0.05755626
215	0xbdfb8f5a	-0.122832015
216	0xbe16e348	-0.14735138
217	0xbe001a1b	-0.12509958
218	0xbdbf3878	-0.093369424
219	0xbda95f63	-0.08270147
220	0xbdd3f935	-0.10350267
221	0xbe052f9e	-0.13006446
222	0xbdae79fd	-0.08519361
223	0xbd8cc9e1	-0.06874443
224	0xbd85ab68	-0.06526834
225	0xbc24231e	-0.010018138
226	0xbd1efaae	-0.038813286
227	0xbd50fd78	-0.051022977
228	0xbd297e0e	-0.04137998
229	0xbcaa55cd	-0.020792866
230	0xbd09400d	-0.03350835
231	0xbd886ef4	-0.06661788
232	0xbd9ddd23	-0.07708194
233	0xbd89e64f	-0.06733381
234	0xbd1cd73c	-0.0382912
235	0xbd8b266a	-0.06794436
236	0xbdcc102c	-0.09964022
237	0xbdd6016f	-0.10449492
238	0xbdbdf94e	-0.09276067
239	0xbd74b225	-0.059740204
240	0xbdb0b3ec	-0.086280674
241	0xbde7d0ac	-0.11319098
242	0xbde1ef16	-0.1103193
243	0xbdae9016	-0.08523576
244	0xbd446b3c	-0.04795383
245	0xbd6fb88f	-0.05852562
246	0xbd9e0dd4	-0.07717481
247	0xbd9e63ab	-0.07733854
248	0xbd79a765	-0.060950655
249	0xbd01fa17	-0.031732645
250	0xbc642ae7	-0.013926244
251	0xbd297cd4	-0.04137881
252	0xbd5ffb1a	-0.05468283
253	0xbd328ff1	-0.043594304
254	0xbcbdc0cc	-0.023163222
255	0xbd1267af	-0.03574341

decoder.convT1.bias f4 [3]
0	0xbd9da6a1	-0.076977976
1	0xbdc1edfb	-0.09469219
2	0xbe3f85be	-0.18703362
